Model: "sequential"
_________________________________________________________________
Layer (type)                 Output Shape              Param #   
=================================================================
masking (Masking)            (None, 2640, 40)          0         
_________________________________________________________________
lstm (LSTM)                  (None, 2640, 256)         304128    
_________________________________________________________________
lstm_1 (LSTM)                (None, 256)               525312    
_________________________________________________________________
dense (Dense)                (None, 256)               65792     
_________________________________________________________________
dropout (Dropout)            (None, 256)               0         
_________________________________________________________________
dense_1 (Dense)              (None, 256)               65792     
_________________________________________________________________
dropout_1 (Dropout)          (None, 256)               0         
_________________________________________________________________
dense_2 (Dense)              (None, 10)                2570      
=================================================================
Total params: 963,594
Trainable params: 963,594
Non-trainable params: 0
_________________________________________________________________
Epoch 1/100
 1/25 [>.............................] - ETA: 8:07 - loss: 12.9297 - accuracy: 0.0938 2/25
…
