Model: "sequential"
_________________________________________________________________
Layer (type)                 Output Shape              Param #   
=================================================================
masking (Masking)            (None, 5280, 96)          0         
_________________________________________________________________
lstm (LSTM)                  (None, 5280, 64)          41216     
_________________________________________________________________
batch_normalization (BatchNo (None, 5280, 64)          256       
_________________________________________________________________
lstm_1 (LSTM)                (None, 32)                12416     
_________________________________________________________________
batch_normalization_1 (Batch (None, 32)                128       
_________________________________________________________________
dense (Dense)                (None, 64)                2112      
_________________________________________________________________
batch_normalization_2 (Batch (None, 64)                256       
_________________________________________________________________
dropout (Dropout)            (None, 64)                0         
_________________________________________________________________
dense_1 (Dense)              (None, 64)                4160      
_________________________________________________________________
batch_normalization_3 (Batch (None, 64)                256       
_________________________________________________________________
dropout_1 (Dropout)          (None, 64)                0         
_________________________________________________________________
dense_2 (Dense)              (None, 10)                650       
=================================================================
Total params: 61,450
Trainable params: 61,002
Non-trainable params: 448
_________________________________________________________________
Epoch 1/100
 1/25 [>.............................] - ETA: 12:37 - loss: 6.7669 - accuracy: 0.0938 2/2
…
