(None, 5280, 96, 1)
(None, 5280, 170, 1)
(None, 880, 28, 64)
(None, 147, 5, 128)
(None, 24, 1, 128)
(None, 8, 1, 128)
Model: "model"
_________________________________________________________________
Layer (type)                 Output Shape              Param #   
=================================================================
input_1 (InputLayer)         [(None, 5280, 96, 1)]     0         
_________________________________________________________________
zero_padding2d (ZeroPadding2 (None, 5280, 170, 1)      0         
_________________________________________________________________
bn_0_freq (BatchNormalizatio (None, 5280, 170, 1)      4         
_________________________________________________________________
conv1 (Conv2D)               (None, 1760, 57, 64)      640       
_________________________________________________________________
bn1 (BatchNormalization)     (None, 1760, 57, 64)      256       
_________________________________________________________________
elu (ELU)                    (None, 1760, 57, 64)      0         
_________________________________________________________________
pool1 (MaxPooling2D)         (None, 880, 28, 64)       0         
_________________________________________________________________
dropout1 (Dropout)           (None, 880, 28, 64)       0         
_________________________________________________________________
conv2 (Conv2D)               (None, 294, 10, 128)      73856     
_________________________________________________________________
bn2 (BatchNormalization)     (None, 294, 10, 128)      512       
_________________________________________________________________
elu_1 (ELU)                  (None, 294, 10, 128)      0         
_________________________________________________________________
pool2 (MaxPooling2D)         (None, 147, 5, 128)       0         
_________________________________________________________________
dropout2 (Dropout)           (None, 147, 5, 128)       0         
_________________________________________________________________
conv3 (Conv2D)               (None, 49, 2, 128)        147584    
_________________________________________________________________
bn3 (BatchNormalization)     (None, 49, 2, 128)        512       
_________________________________________________________________
elu_2 (ELU)                  (None, 49, 2, 128)        0         
_________________________________________________________________
pool3 (MaxPooling2D)         (None, 24, 1, 128)        0         
_________________________________________________________________
dropout3 (Dropout)           (None, 24, 1, 128)        0         
_________________________________________________________________
conv4 (Conv2D)               (None, 8, 1, 128)         147584    
_________________________________________________________________
bn4 (BatchNormalization)     (None, 8, 1, 128)         512       
_________________________________________________________________
elu_3 (ELU)                  (None, 8, 1, 128)         0         
_________________________________________________________________
dropout4 (Dropout)           (None, 8, 1, 128)         0         
_________________________________________________________________
reshape (Reshape)            (None, 8, 128)            0         
_________________________________________________________________
gru1 (GRU)                   (None, 8, 32)             15552     
_________________________________________________________________
gru2 (GRU)                   (None, 32)                6336      
_________________________________________________________________
final_drop (Dropout)         (None, 32)                0         
_________________________________________________________________
output (Dense)               (None, 10)                330       
=================================================================
Total params: 393,678
Trainable params: 392,780
Non-trainable params: 898
_________________________________________________________________
Epoch 1/100
 1/25 [>.............................] - ETA: 2:29 - loss: 2.2082 - accuracy: 0.2500 2/2
…
