Model: "sequential"
_________________________________________________________________
Layer (type)                 Output Shape              Param #   
=================================================================
masking (Masking)            (None, 5280, 96)          0         
_________________________________________________________________
lstm (LSTM)                  (None, 5280, 64)          41216     
_________________________________________________________________
batch_normalization (BatchNo (None, 5280, 64)          256       
_________________________________________________________________
lstm_1 (LSTM)                (None, 32)                12416     
_________________________________________________________________
batch_normalization_1 (Batch (None, 32)                128       
_________________________________________________________________
dense (Dense)                (None, 128)               4224      
_________________________________________________________________
batch_normalization_2 (Batch (None, 128)               512       
_________________________________________________________________
dropout (Dropout)            (None, 128)               0         
_________________________________________________________________
dense_1 (Dense)              (None, 128)               16512     
_________________________________________________________________
batch_normalization_3 (Batch (None, 128)               512       
_________________________________________________________________
dropout_1 (Dropout)          (None, 128)               0         
_________________________________________________________________
dense_2 (Dense)              (None, 10)                1290      
=================================================================
Total params: 77,066
Trainable params: 76,362
Non-trainable params: 704
_________________________________________________________________
Epoch 1/100
 1/25 [>.............................] - ETA: 12:22 - loss: 8.6423 - accuracy: 0.0312 2/25
…
