Model: "sequential"
_________________________________________________________________
Layer (type)                 Output Shape              Param #   
=================================================================
masking (Masking)            (None, 2640, 40)          0         
_________________________________________________________________
lstm (LSTM)                  (None, 2640, 128)         86528     
_________________________________________________________________
lstm_1 (LSTM)                (None, 128)               131584    
_________________________________________________________________
dense (Dense)                (None, 256)               33024     
_________________________________________________________________
dropout (Dropout)            (None, 256)               0         
_________________________________________________________________
dense_1 (Dense)              (None, 256)               65792     
_________________________________________________________________
dropout_1 (Dropout)          (None, 256)               0         
_________________________________________________________________
dense_2 (Dense)              (None, 10)                2570      
=================================================================
Total params: 319,498
Trainable params: 319,498
Non-trainable params: 0
_________________________________________________________________
Epoch 1/100
 1/25 [>.............................] - ETA: 7:19 - loss: 7.6042 - accuracy: 0.1875 2/25 [
…
