Model: "sequential"
_________________________________________________________________
Layer (type)                 Output Shape              Param #   
=================================================================
masking (Masking)            (None, 5280, 96)          0         
_________________________________________________________________
lstm (LSTM)                  (None, 5280, 128)         115200    
_________________________________________________________________
batch_normalization (BatchNo (None, 5280, 128)         512       
_________________________________________________________________
lstm_1 (LSTM)                (None, 64)                49408     
_________________________________________________________________
batch_normalization_1 (Batch (None, 64)                256       
_________________________________________________________________
dense (Dense)                (None, 256)               16640     
_________________________________________________________________
batch_normalization_2 (Batch (None, 256)               1024      
_________________________________________________________________
dropout (Dropout)            (None, 256)               0         
_________________________________________________________________
dense_1 (Dense)              (None, 256)               65792     
_________________________________________________________________
batch_normalization_3 (Batch (None, 256)               1024      
_________________________________________________________________
dropout_1 (Dropout)          (None, 256)               0         
_________________________________________________________________
dense_2 (Dense)              (None, 10)                2570      
=================================================================
Total params: 252,426
Trainable params: 251,018
Non-trainable params: 1,408
_________________________________________________________________
Epoch 1/100
 1/25 [>.............................] - ETA: 13:31 - loss: 10.8071 - accuracy: 0.0312
…
