Model: "sequential"
_________________________________________________________________
Layer (type)                 Output Shape              Param #   
=================================================================
masking (Masking)            (None, 2640, 40)          0         
_________________________________________________________________
lstm (LSTM)                  (None, 2640, 128)         86528     
_________________________________________________________________
batch_normalization (BatchNo (None, 2640, 128)         512       
_________________________________________________________________
lstm_1 (LSTM)                (None, 128)               131584    
_________________________________________________________________
batch_normalization_1 (Batch (None, 128)               512       
_________________________________________________________________
dense (Dense)                (None, 256)               33024     
_________________________________________________________________
batch_normalization_2 (Batch (None, 256)               1024      
_________________________________________________________________
dropout (Dropout)            (None, 256)               0         
_________________________________________________________________
dense_1 (Dense)              (None, 256)               65792     
_________________________________________________________________
batch_normalization_3 (Batch (None, 256)               1024      
_________________________________________________________________
dropout_1 (Dropout)          (None, 256)               0         
_________________________________________________________________
dense_2 (Dense)              (None, 10)                2570      
=================================================================
Total params: 322,570
Trainable params: 321,034
Non-trainable params: 1,536
_________________________________________________________________
Epoch 1/100
 1/25 [>.............................] - ETA: 7:45 - loss: 7.9617 - accuracy: 0.1250 2/
…
