Model: "sequential"
_________________________________________________________________
Layer (type)                 Output Shape              Param #   
=================================================================
masking (Masking)            (None, 5280, 96)          0         
_________________________________________________________________
lstm (LSTM)                  (None, 5280, 128)         115200    
_________________________________________________________________
batch_normalization (BatchNo (None, 5280, 128)         512       
_________________________________________________________________
lstm_1 (LSTM)                (None, 128)               131584    
_________________________________________________________________
batch_normalization_1 (Batch (None, 128)               512       
_________________________________________________________________
dense (Dense)                (None, 256)               33024     
_________________________________________________________________
batch_normalization_2 (Batch (None, 256)               1024      
_________________________________________________________________
dropout (Dropout)            (None, 256)               0         
_________________________________________________________________
dense_1 (Dense)              (None, 10)                2570      
=================================================================
Total params: 284,426
Trainable params: 283,402
Non-trainable params: 1,024
_________________________________________________________________
Epoch 1/100
 1/25 [>.............................] - ETA: 13:43 - loss: 9.1430 - accuracy: 0.1250 
…
