Model: "sequential"
_________________________________________________________________
Layer (type)                 Output Shape              Param #   
=================================================================
masking (Masking)            (None, 2640, 40)          0         
_________________________________________________________________
lstm (LSTM)                  (None, 128)               86528     
_________________________________________________________________
dense (Dense)                (None, 128)               16512     
_________________________________________________________________
dense_1 (Dense)              (None, 128)               16512     
_________________________________________________________________
dense_2 (Dense)              (None, 10)                1290      
=================================================================
Total params: 120,842
Trainable params: 120,842
Non-trainable params: 0
_________________________________________________________________
Epoch 1/100
 1/25 [>.............................] - ETA: 2:47 - loss: 6.5415 - accuracy: 0.2188 2/25 [
…
